…
n might get DataLoader running slow or even freeze, lower the worker number to avoid potential slowness/freeze if necessary.
  warnings.warn(
Using device: cuda
Setting up data...
Warning: Custom test directory not found. Creating dummy test loader.
Classes: ['airplane', 'automobile', 'bird', 'cat', 'deer', 'dog', 'frog', 'horse', 'ship', 'truck']
Creating medium model...
----------------------------------------------------------------
        Layer (type)               Output Shape         Param #
================================================================
            Conv2d-1           [-1, 64, 32, 32]           1,728
       BatchNorm2d-2           [-1, 64, 32, 32]             128
              Mish-3           [-1, 64, 32, 32]               0
            Conv2d-4           [-1, 64, 32, 32]          36,864
       BatchNorm2d-5           [-1, 64, 32, 32]             128
              Mish-6           [-1, 64, 32, 32]               0
            Conv2d-7           [-1, 64, 32, 32]          36,864
       BatchNorm2d-8           [-1, 64, 32, 32]             128
              Mish-9           [-1, 64, 32, 32]               0
       BasicBlock-10           [-1, 64, 32, 32]               0
           Conv2d-11           [-1, 64, 32, 32]          36,864
      BatchNorm2d-12           [-1, 64, 32, 32]             128
             Mish-13           [-1, 64, 32, 32]               0
           Conv2d-14           [-1, 64, 32, 32]          36,864
      BatchNorm2d-15           [-1, 64, 32, 32]             128
             Mish-16           [-1, 64, 32, 32]               0
       BasicBlock-17           [-1, 64, 32, 32]               0
           Conv2d-18           [-1, 64, 32, 32]          36,864
      BatchNorm2d-19           [-1, 64, 32, 32]             128
             Mish-20           [-1, 64, 32, 32]               0
           Conv2d-21           [-1, 64, 32, 32]          36,864
      BatchNorm2d-22           [-1, 64, 32, 32]             128
             Mish-23           [-1, 64, 32, 32]               0
       BasicBlock-24           [-1, 64, 32, 32]               0
           Conv2d-25          [-1, 128, 16, 16]          73,728
      BatchNorm2d-26          [-1, 128, 16, 16]             256
             Mish-27          [-1, 128, 16, 16]               0
           Conv2d-28          [-1, 128, 16, 16]         147,456
      BatchNorm2d-29          [-1, 128, 16, 16]             256
           Conv2d-30          [-1, 128, 16, 16]           8,192
      BatchNorm2d-31          [-1, 128, 16, 16]             256
             Mish-32          [-1, 128, 16, 16]               0
       BasicBlock-33          [-1, 128, 16, 16]               0
           Conv2d-34          [-1, 128, 16, 16]         147,456
      BatchNorm2d-35          [-1, 128, 16, 16]             256
             Mish-36          [-1, 128, 16, 16]               0
           Conv2d-37          [-1, 128, 16, 16]         147,456
      BatchNorm2d-38          [-1, 128, 16, 16]             256
             Mish-39          [-1, 128, 16, 16]               0
       BasicBlock-40          [-1, 128, 16, 16]               0
           Conv2d-41          [-1, 128, 16, 16]         147,456
      BatchNorm2d-42          [-1, 128, 16, 16]             256
             Mish-43          [-1, 128, 16, 16]               0
           Conv2d-44          [-1, 128, 16, 16]         147,456
      BatchNorm2d-45          [-1, 128, 16, 16]             256
             Mish-46          [-1, 128, 16, 16]               0
       BasicBlock-47          [-1, 128, 16, 16]               0
           Conv2d-48          [-1, 128, 16, 16]         147,456
      BatchNorm2d-49          [-1, 128, 16, 16]             256
             Mish-50          [-1, 128, 16, 16]               0
           Conv2d-51          [-1, 128, 16, 16]         147,456
      BatchNorm2d-52          [-1, 128, 16, 16]             256
             Mish-53          [-1, 128, 16, 16]               0
       BasicBlock-54          [-1, 128, 16, 16]               0
           Conv2d-55            [-1, 256, 8, 8]         294,912
      BatchNorm2d-56            [-1, 256, 8, 8]             512
             Mish-57            [-1, 256, 8, 8]               0
           Conv2d-58            [-1, 256, 8, 8]         589,824
      BatchNorm2d-59            [-1, 256, 8, 8]             512
           Conv2d-60            [-1, 256, 8, 8]          32,768
      BatchNorm2d-61            [-1, 256, 8, 8]             512
             Mish-62            [-1, 256, 8, 8]               0
       BasicBlock-63            [-1, 256, 8, 8]               0
           Conv2d-64            [-1, 256, 8, 8]         589,824
      BatchNorm2d-65            [-1, 256, 8, 8]             512
             Mish-66            [-1, 256, 8, 8]               0
           Conv2d-67            [-1, 256, 8, 8]         589,824
      BatchNorm2d-68            [-1, 256, 8, 8]             512
             Mish-69            [-1, 256, 8, 8]               0
       BasicBlock-70            [-1, 256, 8, 8]               0
           Conv2d-71            [-1, 256, 8, 8]         589,824
      BatchNorm2d-72            [-1, 256, 8, 8]             512
             Mish-73            [-1, 256, 8, 8]               0
           Conv2d-74            [-1, 256, 8, 8]         589,824
      BatchNorm2d-75            [-1, 256, 8, 8]             512
             Mish-76            [-1, 256, 8, 8]               0
       BasicBlock-77            [-1, 256, 8, 8]               0
AdaptiveAvgPool2d-78            [-1, 256, 1, 1]               0
           Linear-79                   [-1, 10]           2,570
================================================================
Total params: 4,623,178
Trainable params: 4,623,178
Non-trainable params: 0
----------------------------------------------------------------
Input size (MB): 0.01
Forward/backward pass size (MB): 22.38
Params size (MB): 17.64
Estimated Total Size (MB): 40.02
----------------------------------------------------------------
None
Starting training for 200 epochs...
…
