…
n might get DataLoader running slow or even freeze, lower the worker number to avoid potential slowness/freeze if necessary.
  warnings.warn(
Using device: cuda
Setting up data...
Warning: Custom test directory not found. Creating dummy test loader.
Classes: ['airplane', 'automobile', 'bird', 'cat', 'deer', 'dog', 'frog', 'horse', 'ship', 'truck']
Creating medium model...
----------------------------------------------------------------
        Layer (type)               Output Shape         Param #
================================================================
            Conv2d-1           [-1, 64, 32, 32]           1,728
       BatchNorm2d-2           [-1, 64, 32, 32]             128
              Mish-3           [-1, 64, 32, 32]               0
            Conv2d-4           [-1, 64, 32, 32]          36,864
       BatchNorm2d-5           [-1, 64, 32, 32]             128
              Mish-6           [-1, 64, 32, 32]               0
         Dropout2d-7           [-1, 64, 32, 32]               0
            Conv2d-8           [-1, 64, 32, 32]          36,864
       BatchNorm2d-9           [-1, 64, 32, 32]             128
             Mish-10           [-1, 64, 32, 32]               0
       BasicBlock-11           [-1, 64, 32, 32]               0
           Conv2d-12           [-1, 64, 32, 32]          36,864
      BatchNorm2d-13           [-1, 64, 32, 32]             128
             Mish-14           [-1, 64, 32, 32]               0
        Dropout2d-15           [-1, 64, 32, 32]               0
           Conv2d-16           [-1, 64, 32, 32]          36,864
      BatchNorm2d-17           [-1, 64, 32, 32]             128
             Mish-18           [-1, 64, 32, 32]               0
       BasicBlock-19           [-1, 64, 32, 32]               0
           Conv2d-20           [-1, 64, 32, 32]          36,864
      BatchNorm2d-21           [-1, 64, 32, 32]             128
             Mish-22           [-1, 64, 32, 32]               0
        Dropout2d-23           [-1, 64, 32, 32]               0
           Conv2d-24           [-1, 64, 32, 32]          36,864
      BatchNorm2d-25           [-1, 64, 32, 32]             128
             Mish-26           [-1, 64, 32, 32]               0
       BasicBlock-27           [-1, 64, 32, 32]               0
           Conv2d-28          [-1, 128, 16, 16]          73,728
      BatchNorm2d-29          [-1, 128, 16, 16]             256
             Mish-30          [-1, 128, 16, 16]               0
        Dropout2d-31          [-1, 128, 16, 16]               0
           Conv2d-32          [-1, 128, 16, 16]         147,456
      BatchNorm2d-33          [-1, 128, 16, 16]             256
           Conv2d-34          [-1, 128, 16, 16]           8,192
      BatchNorm2d-35          [-1, 128, 16, 16]             256
             Mish-36          [-1, 128, 16, 16]               0
       BasicBlock-37          [-1, 128, 16, 16]               0
           Conv2d-38          [-1, 128, 16, 16]         147,456
      BatchNorm2d-39          [-1, 128, 16, 16]             256
             Mish-40          [-1, 128, 16, 16]               0
        Dropout2d-41          [-1, 128, 16, 16]               0
           Conv2d-42          [-1, 128, 16, 16]         147,456
      BatchNorm2d-43          [-1, 128, 16, 16]             256
             Mish-44          [-1, 128, 16, 16]               0
       BasicBlock-45          [-1, 128, 16, 16]               0
           Conv2d-46          [-1, 128, 16, 16]         147,456
      BatchNorm2d-47          [-1, 128, 16, 16]             256
             Mish-48          [-1, 128, 16, 16]               0
        Dropout2d-49          [-1, 128, 16, 16]               0
           Conv2d-50          [-1, 128, 16, 16]         147,456
      BatchNorm2d-51          [-1, 128, 16, 16]             256
             Mish-52          [-1, 128, 16, 16]               0
       BasicBlock-53          [-1, 128, 16, 16]               0
           Conv2d-54          [-1, 128, 16, 16]         147,456
      BatchNorm2d-55          [-1, 128, 16, 16]             256
             Mish-56          [-1, 128, 16, 16]               0
        Dropout2d-57          [-1, 128, 16, 16]               0
           Conv2d-58          [-1, 128, 16, 16]         147,456
      BatchNorm2d-59          [-1, 128, 16, 16]             256
             Mish-60          [-1, 128, 16, 16]               0
       BasicBlock-61          [-1, 128, 16, 16]               0
           Conv2d-62            [-1, 256, 8, 8]         294,912
      BatchNorm2d-63            [-1, 256, 8, 8]             512
             Mish-64            [-1, 256, 8, 8]               0
        Dropout2d-65            [-1, 256, 8, 8]               0
           Conv2d-66            [-1, 256, 8, 8]         589,824
      BatchNorm2d-67            [-1, 256, 8, 8]             512
           Conv2d-68            [-1, 256, 8, 8]          32,768
      BatchNorm2d-69            [-1, 256, 8, 8]             512
             Mish-70            [-1, 256, 8, 8]               0
       BasicBlock-71            [-1, 256, 8, 8]               0
           Conv2d-72            [-1, 256, 8, 8]         589,824
      BatchNorm2d-73            [-1, 256, 8, 8]             512
             Mish-74            [-1, 256, 8, 8]               0
        Dropout2d-75            [-1, 256, 8, 8]               0
           Conv2d-76            [-1, 256, 8, 8]         589,824
      BatchNorm2d-77            [-1, 256, 8, 8]             512
             Mish-78            [-1, 256, 8, 8]               0
       BasicBlock-79            [-1, 256, 8, 8]               0
           Conv2d-80            [-1, 256, 8, 8]         589,824
      BatchNorm2d-81            [-1, 256, 8, 8]             512
             Mish-82            [-1, 256, 8, 8]               0
        Dropout2d-83            [-1, 256, 8, 8]               0
           Conv2d-84            [-1, 256, 8, 8]         589,824
      BatchNorm2d-85            [-1, 256, 8, 8]             512
             Mish-86            [-1, 256, 8, 8]               0
       BasicBlock-87            [-1, 256, 8, 8]               0
AdaptiveAvgPool2d-88            [-1, 256, 1, 1]               0
          Dropout-89                  [-1, 256]               0
           Linear-90                   [-1, 10]           2,570
================================================================
Total params: 4,623,178
Trainable params: 4,623,178
Non-trainable params: 0
----------------------------------------------------------------
Input size (MB): 0.01
Forward/backward pass size (MB): 25.25
Params size (MB): 17.64
Estimated Total Size (MB): 42.90
----------------------------------------------------------------
None
Starting training for 200 epochs...
…
