…
n might get DataLoader running slow or even freeze, lower the worker number to avoid potential slowness/freeze if necessary.
  warnings.warn(
Using device: cuda
Setting up data...
Warning: Custom test directory not found. Creating dummy test loader.
Classes: ['airplane', 'automobile', 'bird', 'cat', 'deer', 'dog', 'frog', 'horse', 'ship', 'truck']
Creating medium model...
----------------------------------------------------------------
        Layer (type)               Output Shape         Param #
================================================================
            Conv2d-1           [-1, 64, 32, 32]           1,728
       BatchNorm2d-2           [-1, 64, 32, 32]             128
              ReLU-3           [-1, 64, 32, 32]               0
            Conv2d-4           [-1, 64, 32, 32]          36,864
       BatchNorm2d-5           [-1, 64, 32, 32]             128
              ReLU-6           [-1, 64, 32, 32]               0
         Dropout2d-7           [-1, 64, 32, 32]               0
            Conv2d-8           [-1, 64, 32, 32]          36,864
       BatchNorm2d-9           [-1, 64, 32, 32]             128
             ReLU-10           [-1, 64, 32, 32]               0
       BasicBlock-11           [-1, 64, 32, 32]               0
           Conv2d-12           [-1, 64, 32, 32]          36,864
      BatchNorm2d-13           [-1, 64, 32, 32]             128
             ReLU-14           [-1, 64, 32, 32]               0
        Dropout2d-15           [-1, 64, 32, 32]               0
           Conv2d-16           [-1, 64, 32, 32]          36,864
      BatchNorm2d-17           [-1, 64, 32, 32]             128
             ReLU-18           [-1, 64, 32, 32]               0
       BasicBlock-19           [-1, 64, 32, 32]               0
           Conv2d-20           [-1, 64, 32, 32]          36,864
      BatchNorm2d-21           [-1, 64, 32, 32]             128
             ReLU-22           [-1, 64, 32, 32]               0
        Dropout2d-23           [-1, 64, 32, 32]               0
           Conv2d-24           [-1, 64, 32, 32]          36,864
      BatchNorm2d-25           [-1, 64, 32, 32]             128
             ReLU-26           [-1, 64, 32, 32]               0
       BasicBlock-27           [-1, 64, 32, 32]               0
           Conv2d-28           [-1, 64, 32, 32]          36,864
      BatchNorm2d-29           [-1, 64, 32, 32]             128
             ReLU-30           [-1, 64, 32, 32]               0
        Dropout2d-31           [-1, 64, 32, 32]               0
           Conv2d-32           [-1, 64, 32, 32]          36,864
      BatchNorm2d-33           [-1, 64, 32, 32]             128
             ReLU-34           [-1, 64, 32, 32]               0
       BasicBlock-35           [-1, 64, 32, 32]               0
           Conv2d-36          [-1, 128, 16, 16]          73,728
      BatchNorm2d-37          [-1, 128, 16, 16]             256
             ReLU-38          [-1, 128, 16, 16]               0
        Dropout2d-39          [-1, 128, 16, 16]               0
           Conv2d-40          [-1, 128, 16, 16]         147,456
      BatchNorm2d-41          [-1, 128, 16, 16]             256
           Conv2d-42          [-1, 128, 16, 16]           8,192
      BatchNorm2d-43          [-1, 128, 16, 16]             256
             ReLU-44          [-1, 128, 16, 16]               0
       BasicBlock-45          [-1, 128, 16, 16]               0
           Conv2d-46          [-1, 128, 16, 16]         147,456
      BatchNorm2d-47          [-1, 128, 16, 16]             256
             ReLU-48          [-1, 128, 16, 16]               0
        Dropout2d-49          [-1, 128, 16, 16]               0
           Conv2d-50          [-1, 128, 16, 16]         147,456
      BatchNorm2d-51          [-1, 128, 16, 16]             256
             ReLU-52          [-1, 128, 16, 16]               0
       BasicBlock-53          [-1, 128, 16, 16]               0
           Conv2d-54          [-1, 128, 16, 16]         147,456
      BatchNorm2d-55          [-1, 128, 16, 16]             256
             ReLU-56          [-1, 128, 16, 16]               0
        Dropout2d-57          [-1, 128, 16, 16]               0
           Conv2d-58          [-1, 128, 16, 16]         147,456
      BatchNorm2d-59          [-1, 128, 16, 16]             256
             ReLU-60          [-1, 128, 16, 16]               0
       BasicBlock-61          [-1, 128, 16, 16]               0
           Conv2d-62          [-1, 128, 16, 16]         147,456
      BatchNorm2d-63          [-1, 128, 16, 16]             256
             ReLU-64          [-1, 128, 16, 16]               0
        Dropout2d-65          [-1, 128, 16, 16]               0
           Conv2d-66          [-1, 128, 16, 16]         147,456
      BatchNorm2d-67          [-1, 128, 16, 16]             256
             ReLU-68          [-1, 128, 16, 16]               0
       BasicBlock-69          [-1, 128, 16, 16]               0
           Conv2d-70          [-1, 128, 16, 16]         147,456
      BatchNorm2d-71          [-1, 128, 16, 16]             256
             ReLU-72          [-1, 128, 16, 16]               0
        Dropout2d-73          [-1, 128, 16, 16]               0
           Conv2d-74          [-1, 128, 16, 16]         147,456
      BatchNorm2d-75          [-1, 128, 16, 16]             256
             ReLU-76          [-1, 128, 16, 16]               0
       BasicBlock-77          [-1, 128, 16, 16]               0
           Conv2d-78            [-1, 256, 8, 8]         294,912
      BatchNorm2d-79            [-1, 256, 8, 8]             512
             ReLU-80            [-1, 256, 8, 8]               0
        Dropout2d-81            [-1, 256, 8, 8]               0
           Conv2d-82            [-1, 256, 8, 8]         589,824
      BatchNorm2d-83            [-1, 256, 8, 8]             512
           Conv2d-84            [-1, 256, 8, 8]          32,768
      BatchNorm2d-85            [-1, 256, 8, 8]             512
             ReLU-86            [-1, 256, 8, 8]               0
       BasicBlock-87            [-1, 256, 8, 8]               0
           Conv2d-88            [-1, 256, 8, 8]         589,824
      BatchNorm2d-89            [-1, 256, 8, 8]             512
             ReLU-90            [-1, 256, 8, 8]               0
        Dropout2d-91            [-1, 256, 8, 8]               0
           Conv2d-92            [-1, 256, 8, 8]         589,824
      BatchNorm2d-93            [-1, 256, 8, 8]             512
             ReLU-94            [-1, 256, 8, 8]               0
       BasicBlock-95            [-1, 256, 8, 8]               0
           Conv2d-96            [-1, 256, 8, 8]         589,824
      BatchNorm2d-97            [-1, 256, 8, 8]             512
             ReLU-98            [-1, 256, 8, 8]               0
        Dropout2d-99            [-1, 256, 8, 8]               0
          Conv2d-100            [-1, 256, 8, 8]         589,824
     BatchNorm2d-101            [-1, 256, 8, 8]             512
            ReLU-102            [-1, 256, 8, 8]               0
      BasicBlock-103            [-1, 256, 8, 8]               0
AdaptiveAvgPool2d-104            [-1, 256, 1, 1]               0
         Dropout-105                  [-1, 256]               0
          Linear-106                   [-1, 10]           2,570
================================================================
Total params: 4,992,586
Trainable params: 4,992,586
Non-trainable params: 0
----------------------------------------------------------------
Input size (MB): 0.01
Forward/backward pass size (MB): 31.25
Params size (MB): 19.05
Estimated Total Size (MB): 50.31
----------------------------------------------------------------
None
Starting training for 200 epochs...
…
