…
n might get DataLoader running slow or even freeze, lower the worker number to avoid potential slowness/freeze if necessary.
  warnings.warn(
Using device: cuda
Setting up data...
Warning: Custom test directory not found. Creating dummy test loader.
Classes: ['airplane', 'automobile', 'bird', 'cat', 'deer', 'dog', 'frog', 'horse', 'ship', 'truck']
Creating medium model...
----------------------------------------------------------------
        Layer (type)               Output Shape         Param #
================================================================
            Conv2d-1           [-1, 64, 32, 32]           1,728
       BatchNorm2d-2           [-1, 64, 32, 32]             128
            Conv2d-3           [-1, 64, 32, 32]          36,864
       BatchNorm2d-4           [-1, 64, 32, 32]             128
            Conv2d-5           [-1, 64, 32, 32]          36,864
       BatchNorm2d-6           [-1, 64, 32, 32]             128
        BasicBlock-7           [-1, 64, 32, 32]               0
            Conv2d-8           [-1, 64, 32, 32]          36,864
       BatchNorm2d-9           [-1, 64, 32, 32]             128
           Conv2d-10           [-1, 64, 32, 32]          36,864
      BatchNorm2d-11           [-1, 64, 32, 32]             128
       BasicBlock-12           [-1, 64, 32, 32]               0
           Conv2d-13           [-1, 64, 32, 32]          36,864
      BatchNorm2d-14           [-1, 64, 32, 32]             128
           Conv2d-15           [-1, 64, 32, 32]          36,864
      BatchNorm2d-16           [-1, 64, 32, 32]             128
       BasicBlock-17           [-1, 64, 32, 32]               0
           Conv2d-18          [-1, 128, 16, 16]          73,728
      BatchNorm2d-19          [-1, 128, 16, 16]             256
           Conv2d-20          [-1, 128, 16, 16]         147,456
      BatchNorm2d-21          [-1, 128, 16, 16]             256
           Conv2d-22          [-1, 128, 16, 16]           8,192
      BatchNorm2d-23          [-1, 128, 16, 16]             256
       BasicBlock-24          [-1, 128, 16, 16]               0
           Conv2d-25          [-1, 128, 16, 16]         147,456
      BatchNorm2d-26          [-1, 128, 16, 16]             256
           Conv2d-27          [-1, 128, 16, 16]         147,456
      BatchNorm2d-28          [-1, 128, 16, 16]             256
       BasicBlock-29          [-1, 128, 16, 16]               0
           Conv2d-30          [-1, 128, 16, 16]         147,456
      BatchNorm2d-31          [-1, 128, 16, 16]             256
           Conv2d-32          [-1, 128, 16, 16]         147,456
      BatchNorm2d-33          [-1, 128, 16, 16]             256
       BasicBlock-34          [-1, 128, 16, 16]               0
           Conv2d-35          [-1, 128, 16, 16]         147,456
      BatchNorm2d-36          [-1, 128, 16, 16]             256
           Conv2d-37          [-1, 128, 16, 16]         147,456
      BatchNorm2d-38          [-1, 128, 16, 16]             256
       BasicBlock-39          [-1, 128, 16, 16]               0
           Conv2d-40            [-1, 256, 8, 8]         294,912
      BatchNorm2d-41            [-1, 256, 8, 8]             512
           Conv2d-42            [-1, 256, 8, 8]         589,824
      BatchNorm2d-43            [-1, 256, 8, 8]             512
           Conv2d-44            [-1, 256, 8, 8]          32,768
      BatchNorm2d-45            [-1, 256, 8, 8]             512
       BasicBlock-46            [-1, 256, 8, 8]               0
           Conv2d-47            [-1, 256, 8, 8]         589,824
      BatchNorm2d-48            [-1, 256, 8, 8]             512
           Conv2d-49            [-1, 256, 8, 8]         589,824
      BatchNorm2d-50            [-1, 256, 8, 8]             512
       BasicBlock-51            [-1, 256, 8, 8]               0
           Conv2d-52            [-1, 256, 8, 8]         589,824
      BatchNorm2d-53            [-1, 256, 8, 8]             512
           Conv2d-54            [-1, 256, 8, 8]         589,824
      BatchNorm2d-55            [-1, 256, 8, 8]             512
       BasicBlock-56            [-1, 256, 8, 8]               0
AdaptiveAvgPool2d-57            [-1, 256, 1, 1]               0
           Linear-58                   [-1, 10]           2,570
================================================================
Total params: 4,623,178
Trainable params: 4,623,178
Non-trainable params: 0
----------------------------------------------------------------
Input size (MB): 0.01
Forward/backward pass size (MB): 16.13
Params size (MB): 17.64
Estimated Total Size (MB): 33.77
----------------------------------------------------------------
None
Starting training for 200 epochs...
…
